Using TensorFlow backend.
(48508, 64, 64, 3) (48508, 64, 64, 3)
(5390, 64, 64, 3) (5390, 64, 64, 3)
_________________________________________________________________
Layer (type)                 Output Shape              Param #   
=================================================================
input_1 (InputLayer)         (None, 64, 64, 3)         0         
_________________________________________________________________
conv2d_1 (Conv2D)            (None, 64, 64, 128)       18944     
_________________________________________________________________
batch_normalization_1 (Batch (None, 64, 64, 128)       512       
_________________________________________________________________
activation_1 (Activation)    (None, 64, 64, 128)       0         
_________________________________________________________________
conv2d_2 (Conv2D)            (None, 64, 64, 320)       41280     
_________________________________________________________________
batch_normalization_2 (Batch (None, 64, 64, 320)       1280      
_________________________________________________________________
activation_2 (Activation)    (None, 64, 64, 320)       0         
_________________________________________________________________
conv2d_3 (Conv2D)            (None, 64, 64, 320)       102720    
_________________________________________________________________
conv2d_4 (Conv2D)            (None, 64, 64, 320)       102720    
_________________________________________________________________
batch_normalization_4 (Batch (None, 64, 64, 320)       1280      
_________________________________________________________________
activation_4 (Activation)    (None, 64, 64, 320)       0         
_________________________________________________________________
conv2d_5 (Conv2D)            (None, 64, 64, 128)       41088     
_________________________________________________________________
batch_normalization_5 (Batch (None, 64, 64, 128)       512       
_________________________________________________________________
activation_5 (Activation)    (None, 64, 64, 128)       0         
_________________________________________________________________
conv2d_6 (Conv2D)            (None, 64, 64, 128)       147584    
_________________________________________________________________
batch_normalization_6 (Batch (None, 64, 64, 128)       512       
_________________________________________________________________
activation_6 (Activation)    (None, 64, 64, 128)       0         
_________________________________________________________________
conv2d_7 (Conv2D)            (None, 64, 64, 512)       66048     
_________________________________________________________________
batch_normalization_7 (Batch (None, 64, 64, 512)       2048      
_________________________________________________________________
activation_7 (Activation)    (None, 64, 64, 512)       0         
_________________________________________________________________
conv2d_8 (Conv2D)            (None, 64, 64, 128)       1638528   
_________________________________________________________________
batch_normalization_8 (Batch (None, 64, 64, 128)       512       
_________________________________________________________________
activation_8 (Activation)    (None, 64, 64, 128)       0         
_________________________________________________________________
conv2d_9 (Conv2D)            (None, 64, 64, 128)       409728    
_________________________________________________________________
batch_normalization_9 (Batch (None, 64, 64, 128)       512       
_________________________________________________________________
activation_9 (Activation)    (None, 64, 64, 128)       0         
_________________________________________________________________
conv2d_10 (Conv2D)           (None, 64, 64, 128)       147584    
_________________________________________________________________
batch_normalization_10 (Batc (None, 64, 64, 128)       512       
_________________________________________________________________
activation_10 (Activation)   (None, 64, 64, 128)       0         
_________________________________________________________________
conv2d_11 (Conv2D)           (None, 64, 64, 128)       409728    
_________________________________________________________________
batch_normalization_11 (Batc (None, 64, 64, 128)       512       
_________________________________________________________________
activation_11 (Activation)   (None, 64, 64, 128)       0         
_________________________________________________________________
conv2d_12 (Conv2D)           (None, 64, 64, 128)       409728    
_________________________________________________________________
batch_normalization_12 (Batc (None, 64, 64, 128)       512       
_________________________________________________________________
activation_12 (Activation)   (None, 64, 64, 128)       0         
_________________________________________________________________
conv2d_13 (Conv2D)           (None, 64, 64, 256)       33024     
_________________________________________________________________
batch_normalization_13 (Batc (None, 64, 64, 256)       1024      
_________________________________________________________________
activation_13 (Activation)   (None, 64, 64, 256)       0         
_________________________________________________________________
conv2d_14 (Conv2D)           (None, 64, 64, 64)        802880    
_________________________________________________________________
batch_normalization_14 (Batc (None, 64, 64, 64)        256       
_________________________________________________________________
activation_14 (Activation)   (None, 64, 64, 64)        0         
_________________________________________________________________
conv2d_15 (Conv2D)           (None, 64, 64, 3)         9411      
=================================================================
Total params: 4,390,979
Trainable params: 4,385,987
Non-trainable params: 4,992
_________________________________________________________________
Train on 48508 samples, validate on 5390 samples
Epoch 1/50
48508/48508 [==============================] - 890s 18ms/step - loss: 0.1122 - acc: 0.7413 - mean_squared_error: 0.1122 - val_loss: 0.1054 - val_acc: 0.7565 - val_mean_squared_error: 0.1054
…
